fraud-detection-app/model.onnx (onnx, 655418 bytes, 7 tensors)

model/dense/MatMul/ReadVariableOp:0 f4 [100, 1]
0.24602415 0.09946953 0.24879122 0.24553503 0.23028322 -0.101500146 0.33369723 -0.20662704
0.25714347 0.20022641 -0.16772579 -0.021354854 0.5057726 -0.3403964 0.25166014 0.1701433
-0.16851096 -0.3137278 0.31357208 -0.23508069 -0.19970289 -0.14061306 -0.047625743 0.07346455
0.24466197 0.1174848 -0.13109379 0.12181249 -0.25851166 -0.08055397 0.25963846 -0.13777326
0.104131706 -0.16100083 0.23718347 -0.072315745 -0.093211 -0.14465132 0.3629702 -0.2851524
-0.08279014 0.3239295 -0.1138775 -0.22668688 -0.27896068 -0.4700449 -0.04285677 0.38448006
-0.0483906 0.16708651 0.109227315 0.020881955 0.32465386 0.03372744 0.08683376 -0.1928082
-0.16608056 -0.034256924 -0.055179182 0.2505711 0.08344138 -0.24827695 -0.14997791 0.17978537
-0.19727902 -0.11613892 -0.52758646 0.10225029 0.19768523 -0.07136332 -0.039537963 -0.25394288
0.14718893 -0.33530286 -0.30684724 -0.16312136 -0.13430244 0.26446903 0.37403494 -0.32040983
-0.14879529 0.2613636 -0.37285376 -0.10976367 -0.20580001 -0.22290416 0.105572596 -0.22309037
0.072211206 0.42758846 -0.13479586 0.19914052 0.22524305 0.06821164 -0.24709898 0.18006964
-0.14788418 -0.37445143 -0.12041797 -0.1716841
00000000: c1ed 7b3e aeb6 cb3d 20c3 7e3e 896d 7b3e
00000010: 5dcf 6b3e 4fdf cfbd 5dda aa3e 0a96 53be
00000020: 4fa8 833e 2708 4d3e 4fc0 2bbe 60f0 aebc
00000030: 507a 013f 7048 aebe 99d9 803e 0c3a 2e3e
00000040: 238e 2cbe eea0 a0be 858c a03e feb8 70be
00000050: ea7e 4cbe dffc 0fbe 3613 43bd 9574 963d
00000060: ab88 7a3e df9b f03d 733d 06be d478 f93d
00000070: a45b 84be 7bf9 a4bd 55ef 843e 6f14 0dbe
00000080: 0143 d53d 67dd 24be 39e0 723e 471a 94bd
00000090: 69e5 bebd 7a1f 14be 3bd7 b93e 7fff 91be
000000a0: e08d a9bd 16da a53e 9b38 e9bd 9b20 68be
000000b0: efd3 8ebe baa9 f0be 958a 2fbd 92da c43e
000000c0: 3935 46bd ba18 2b3e 92b2 df3d a210 ab3c
000000d0: 0839 a63e c925 0a3d e6d5 b13d 836f 45be
000000e0: 0611 2abe fd50 0cbd 9103 62bd db4a 803e
000000f0: 50e3 aa3d 503c 7ebe cf93 19be a819 383e
00000100: 8303 4abe 3eda edbd e80f 07bf 9a68 d13d
00000110: ff6d 4a3e ef26 92bd 8ff2 21bd cd04 82be
00000120: b2b8 163e d1ac abbe 151b 9dbe 4909 27be
00000130: 9486 09be 7c68 873e 8281 bf3e c20c a4be
00000140: cb5d 18be 73d1 853e b0e6 bebe c6cb e0bd
00000150: 3dbd 52be fd40 64be 7236 d83d cd71 64be
00000160: 78e3 933d e0ec da3e ed07 0abe 7eeb 4b3e
00000170: 1da6 663e 8bb2 8b3d 8407 7dbe 2d64 383e
00000180: f36e 17be 19b8 bfbe b29d f6bd f5cd 2fbe

W0__62 f4 [1, 400, 100]
0.018596163 0.09362585 0.058959905 0.041167416 0.054604344 -0.04882001 -0.010797414 -0.16993876
0.07820501 0.09727942 0.024062268 0.081538804 0.9784773 -0.3783891 0.08721488 0.035837106
-0.43405563 -0.08746469 0.4666303 0.24858376 -0.16689193 0.34367853 -0.000121288 0.057914786
-0.006899581 0.05252015 0.076317064 -0.0481046 -0.16808017 -0.07139158 -0.029945474 -0.031190157
0.023033418 0.016718872 -0.08287403 0.1695739 -0.07850781 0.023941088 -0.018426778 0.003313288
-0.0623197 0.07691709 0.044622965 0.05357417 -0.045712344 -0.08497332 0.03604511 0.055457287
0.07075588 0.06531153 -0.09211308 -0.01900761 0.013917409 0.091690935 -0.03822492 0.07353074
0.1182178 0.0146019235 -0.016048396 -0.46863082 -0.08183011 0.07557701 -0.021666462 -0.051535256
-0.091438696 0.116357 -0.030862153 -0.0040708184 -0.05769145 0.05106603 -0.18796195 0.078975596
-0.06505284 -0.18582605 0.02859763 0.026785497 0.06359081 0.022320172 -0.081735544 -0.32384467
0.030269958 0.04224284 0.09970301 -0.14760149 0.0011487007 -0.07153963 0.020547425 0.22511095
-0.15656775 0.3221359 0.10048238 0.058680438 -0.08687636 0.1209342 -0.03914166 0.08740141
-0.005971834 0.08829408 0.033729292 -0.04323072 0.023545496 -0.04943188 -0.26974952 -0.042794973
-0.031326048 0.061396547 0.14229108 0.102001496 0.08238696 0.0034687072 -0.02501396 -0.069027625
0.16132559 -0.17985164 -0.024515428 -0.08183223 -0.34114876 0.09459146 0.55721843 0.00069128996
-0.10078181 0.14924172 0.01912076 0.097398594 -0.2868019 -0.0021575391 0.013357297 0.01511696
0.012527062 -0.01107618 0.081891716 0.020327337 0.028944261 0.10014405 -0.047704924 0.12825501
0.042034574 0.18008764 -0.16853932 0.05207599 0.097659014 -0.18670632 -0.08264244 0.13938618
-0.10315326 -0.06857689 0.045587905 0.055946387 0.08010795 -0.02908358 -0.02765477 0.084144585
-0.067972794 0.08887119 -0.047388278 -0.061955884 -0.07115416 -0.0006685257 0.04364947 -0.35475227
0.014430983 0.031109191 -0.19336201 -0.048685923 -0.06900942 0.050508637 0.06600072 0.084080674
-0.012181038 -0.03434402 -0.08830105 0.08925203 0.04201918 -0.14486668 0.099787764 0.107104346
-0.035752792 -0.17789926 0.03849652 0.018341321 0.054989077 0.04548609 -0.10166866 -0.18057802
-0.10558495 0.07781793 0.076940484 -0.07306369 -0.079452544 -0.1586267 0.10176232 0.0033395588
0.041744165 0.042214554 -0.1882903 0.075894035 -0.06629485 0.0002738163 -0.0564041 -0.07723224
-0.010251082 0.2507557 -0.4028202 -0.02699896 0.086481206 -0.022587389 0.38964158 -0.046733312
0.020933859 0.10872813 -0.03733588 0.083658926 -0.3266402 0.14877012 0.026924215 0.102741025
-0.6561061 -0.07796812 0.900313 0.12965274 -0.011903942 0.2590423 0.015661903 0.07000203
-0.06637381 -0.084659494 0.022197329 -0.06078415 -0.17656298 0.0071064797 -0.0063399347 -0.073412195
-0.018645555 -0.04932473 0.09275053 0.016706686 -0.033206403 -0.5409661 -0.0896377 -0.08199013
-0.00819511 0.1356136 -0.06775803 0.025002433 -0.09106114 -0.06287697 0.07033711 0.018561907
-0.10695567 0.028243296 -0.04264002 -0.11766155 0.005463198 0.09943003 -0.036055498 -0.0337808
00000000: fb56 983c e9be bf3d f17f 713d 2a9f 283d
00000010: cea8 5f3d 7ef7 47bd a3e7 30bc 6d04 2ebe
00000020: f329 a03d 6f3a c73d 3c1e c53c d1fd a63d
00000030: 7d7d 7a3f 37bc c1be b79d b23d eec9 123d
00000040: 8a3c debe b020 b3bd 2bea ee3e be8c 7e3e
00000050: b8e5 2abe a2f6 af3e 005c feb8 0e38 6d3d
00000060: e115 e2bb 5e1f 573d 1f4c 9c3d 5409 45bd
00000070: 351d 2cbe c035 92bd 3650 f5bc 8082 ffbc
00000080: 94b0 bc3c 04f6 883c dcb9 a9bd c8a4 2d3e
00000090: b4c8 a0bd 1a20 c43c c1f3 96bc c023 593b
000000a0: f142 7fbd b586 9d3d 92c6 363d 9770 5b3d
000000b0: de3c 3bbd 7e06 aebd 0aa4 133d 2e27 633d
000000c0: 75e8 903d 0dc2 853d c8a5 bcbd d9b5 9bbc
000000d0: d805 643c 75c8 bb3d bc91 1cbd 4997 963d
000000e0: 2d1c f23d e83c 6f3c ed77 83bc 61f0 efbe
000000f0: 8b96 a7bd 1fc8 9a3d dd7d b1bc a216 53bd
00000100: 3644 bbbd 944c ee3d a0d2 fcbc 8064 85bb
00000110: df4d 6cbd 9d2a 513d 1979 40be f5bd a13d
00000120: 6c3a 85bd 2f49 3ebe 9445 ea3c 426d db3c
00000130: e63b 823d cbd8 b63c f764 a7bd f8ce a5be
00000140: b4f8 f73c d406 2d3d 1731 cc3d d824 17be
00000150: 0090 963a 5f83 92bd 1353 a83c 7c83 663e
00000160: 4c53 20be ffee a43e b5c9 cd3d e65a 703d
00000170: 3cec b1bd 5aac f73d 0153 20bd 83ff b23d
00000180: 60af c3bb 87d3 b43d ba27 0a3d b212 31bd
00000190: 7ce2 c03c 1579 4abd 9c1c 8abe c849 2fbd
000001a0: be4f 00bd f27a 7b3d c1b4 113e 29e6 d03d
000001b0: 7fba a83d 4053 633b 14ea ccbc 5b5e 8dbd
000001c0: 8932 253e 072b 38be 94d4 c8bc a897 a7bd
000001d0: 0dab aebe 2bb9 c13d dea5 0e3f af37 353a
000001e0: b266 cebd d2d2 183e 24a3 9c3c ea78 c73d
000001f0: b3d7 92be 8065 0dbb 90d8 5a3c 20ad 773c
00000200: 4e3e 4d3c de78 35bc d8b6 a73d 8485 a63c
00000210: 841c ed3c 5318 cd3d 3d66 43bd 4855 033e
00000220: 722c 2c3d e568 383e 9295 2cbe a24d 553d
00000230: 7301 c83d f12f 3fbe 7140 a9bd 40bb 0e3e
00000240: 0442 d3bd 0a72 8cbd 62ba 3a3d 0a28 653d
00000250: a30f a43d b040 eebc 428c e2bc ff53 ac3d
00000260: 5235 8bbd 1902 b63d 361a 42bd 74c5 7dbd
00000270: 46b9 91bd 0040 2fba c9c9 323d 17a2 b5be
00000280: ee6f 6c3c b4d8 fe3c b100 46be e46a 47bd
00000290: d054 8dbd 25e2 4e3d 632b 873d 7d32 ac3d
000002a0: fa92 47bc 51ac 0cbd 2ed7 b4bd c5c9 b63d
000002b0: 4e1c 2c3d ee57 14be 875d cc3d 8659 db3d
000002c0: 8571 12bd 392b 36be 87ae 1d3d 8a40 963c
000002d0: 3a3c 613d 9f4f 3a3d a937 d0bd 72e9 38be
000002e0: ec3c d8bd 025f 9f3d f992 9d3d 6aa2 95bd
000002f0: 04b8 a2bd 0a6f 22be c368 d03d 80dc 5a3b
00000300: eefb 2a3d 2be9 2c3d 2ccf 40be 556e 9b3d
00000310: 98c5 87bd 008f 8f39 fc07 67bd f02b 9ebd
00000320: 27f4 27bc 0d63 803e 733e cebe ec2c ddbc
00000330: 0f1d b13d 3009 b9bc 1a7f c73e 6e6b 3fbd
00000340: 7c7d ab3c dbac de3d 82ed 18bd 5f55 ab3d
00000350: 623d a7be 3257 183e 2c90 dc3c e369 d23d
00000360: 92f6 27bf c0ad 9fbd ea7a 663f b0c3 043e
00000370: c008 43bc 31a1 843e 644d 803c 395d 8f3d
00000380: feee 87bd f561 adbd 2cd7 b53c cdf8 78bd
00000390: edcc 34be 79dd e83b 3abf cfbb 2259 96bd
000003a0: 90be 98bc ba08 4abd fdf3 bd3d 76dc 883c
000003b0: 7003 08bd c17c 0abf f893 b7bd 71ea a7bd
000003c0: c844 06bc 4bde 0a3e b9c4 8abd e7d1 cc3c
000003d0: 437e babd a4c5 80bd e70c 903d 240f 983c
000003e0: 930b dbbd 7c5e e73c 4da7 2ebd 8af8 f0bd
000003f0: a004 b33b f9a1 cb3d eeae 13bd bc5d 0abd

W0__41 f4 [1, 400, 103]
-0.09534216 -0.107403964 0.021294095 0.0078073293 -0.048541017 0.06321756 -0.08535559 0.017065518
-0.09129591 0.086335324 -0.034223147 -0.055784643 0.049195208 -0.000522092 -0.015501022 0.028432868
0.049638443 -0.0895014 0.074363 -0.047660675 0.105063386 -0.087911665 -0.0105645135 -0.03459598
-0.004331842 -0.047431998 0.03305965 0.06870019 -0.06221839 -0.10254475 0.02727031 -0.0041300654
0.06976368 -0.053905793 -0.084029086 -0.046928186 0.0441766 -0.03832835 0.02558469 -0.03777785
-0.080712676 -0.036509514 -0.061163533 0.035670556 0.086421244 -0.0378856 -0.091348566 -0.06669949
0.0792165 0.069245495 0.03673596 0.011670902 0.0017211065 0.056283407 0.079990946 0.09541213
0.06720028 0.07553566 0.040280543 -0.10726244 0.057628997 -0.035157703 0.055446498 0.04295931
-0.06873057 -0.030301377 -0.09008063 -0.07347386 -0.047539514 0.03206297 -0.08179675 -0.032584563
-0.08323306 -0.020377666 -0.016184919 -0.072562665 -0.06467764 0.019869037 -0.0482212 -0.061045732
0.087370045 0.05462923 -0.07107881 0.054279514 -0.08936043 -0.09793222 0.089599855 0.0019096062
0.025681086 0.030240782 -0.05936262 -0.049598243 -0.01601012 -0.07953033 0.0103494 0.10655191
0.10211413 -0.024140283 -0.10897326 -0.022728346 0.091593094 0.022913612 0.02447804 -0.022645384
0.08444204 -0.06964964 0.048587553 0.072011985 0.08581934 -0.06275019 -0.0026958361 -0.01971475
0.01916448 -0.06439513 0.009060845 -0.07026078 0.057003863 0.021470092 -0.09852983 0.027723707
0.02028238 -0.0022767857 0.083677135 -0.0706107 -0.002333656 0.01634749 -0.019927911 -0.03134983
0.033917345 -0.014413826 -0.013259441 -0.015847974 -0.051243573 0.069895215 -0.052043896 -0.081905805
-0.052768834 0.10254931 0.09108681 0.00848683 -0.04928098 0.097401954 -0.05315875 0.091032945
0.028417207 -0.10628203 -0.0506067 -0.09790473 0.08356162 -0.07530554 0.052960567 0.04126466
0.052870624 -0.08004713 0.08563303 0.029404707 -0.06489527 -0.10487877 0.005051911 0.057394035
-0.10896321 -0.061533164 0.07571901 -0.0010309517 -0.05313021 -0.081956215 -0.03968414 -0.0049881935
0.020423107 -0.041296244 -0.10563037 0.01544819 -0.06890238 -0.049463414 0.080403246 -0.034115553
-0.06480497 0.060214974 0.011322968 0.037064366 0.018655695 0.016564839 0.0021111965 -0.090700574
-0.016725868 0.10571758 0.07735241 0.024389662 0.040181853 -0.020489141 0.06855259 0.055290647
0.08675658 -0.07327245 0.06666673 -0.056632333 0.026609547 -0.05111934 0.03286404 -0.049298607
0.00032119453 -0.054423694 -0.10883723 -0.10612715 -0.04745918 0.011682101 -0.04622926 -0.052968062
-0.0703032 -0.01654075 0.0020491257 0.05550105 0.05587735 0.010253243 0.0070197657 0.09294968
0.05289244 -0.01844655 -0.03952887 0.097981416 -0.0759559 0.08498231 -0.014978543 -0.095864505
-0.022488445 0.00012652576 0.10621097 -0.036996894 -0.08543758 0.028698675 0.07420226 0.036202483
0.05697178 -0.013713777 -0.08393928 -0.038723 0.08630071 0.0015050769 0.036641665 0.056217052
0.037926577 -0.102598384 0.04336878 -0.10311285 -0.0028398857 -0.08858362 0.040404476 -0.077490345
-0.08875475 -0.03700067 0.025849797 -0.01651375 -0.07781178 -0.073008224 -0.029412828 0.03983111
00000000: c042 c3bd 9cf6 dbbd f470 ae3c a0d4 ff3b
00000010: f2d2 46bd 3578 813d e9ce aebd fccc 8b3c
00000020: 5af9 babd 93d0 b03d 922d 0cbd 707e 64bd
00000030: ea80 493d 00dd 08ba 00f8 7dbc 0cec e83c
00000040: ae51 4b3d 834c b7bd a14b 983d d737 43bd
00000050: 792b d73d 080b b4bd c816 2dbc 84b4 0dbd
00000060: 20f2 8dbb 0e48 42bd 8e69 073d afb2 8c3d
00000070: b6d8 7ebd fb02 d2bd fc65 df3c 8055 87bb
00000080: 43e0 8e3d 52cc 5cbd 7117 acbd c537 40bd
00000090: 86f2 343d 30fe 1cbd fc96 d13c f2bc 1abd
000000a0: b04c a5bd 008b 15bd 9d86 7abd 4a1b 123d
000000b0: 9ffd b03d ee2d 1bbd f514 bbbd be99 88bd
000000c0: 433c a23d 95d0 8d3d 7278 163d 5037 3f3c
000000d0: c096 e13a 6e89 663d 4bd2 a33d 6f67 c33d
000000e0: 4da0 893d 71b2 9a3d 36fd 243d 69ac dbbd
000000f0: 620c 6c3d 8601 10bd de1b 633d 1af6 2f3d
00000100: 9dc2 8cbd 983a f8bc 317c b8bd 7779 96bd
00000110: cbb8 42bd 7654 033d 0e85 a7bd 6477 05bd
00000120: 1876 aabd 10ef a6bc 3c96 84bc bc9b 94bd
00000130: b675 84bd 64c4 a23c 9883 45bd 170b 7abd
00000140: 11ef b23d e6c2 5f3d c491 91bd 3254 5e3d
00000150: 9a02 b7bd b090 c8bd 2180 b73d c04b fa3a
00000160: 2461 d23c 84bb f73c 3826 73bd 8727 4bbd
00000170: a827 83bc cce0 a2bd 8890 293c e337 da3d
00000180: 3721 d13d d8c1 c5bc 5f2d dfbd cc30 babc
00000190: 2995 bb3d 54b5 bb3c 2c86 c83c d082 b9bc
000001a0: f3ef ac3d 78a4 8ebd be03 473d 057b 933d
000001b0: 0dc2 af3d 2c83 80bd a0ac 30bb d480 a1bc
000001c0: d4fe 9c3c 98e1 83bd f073 143c e2e4 8fbd
000001d0: e27c 693d 0ce2 af3c 02ca c9bd d41c e33c
000001e0: 3c27 a63c 2036 15bb eb5e ab3d 589c 90bd
000001f0: 40f0 18bb 2ceb 853c dc3f a3bc ae68 00bd
00000200: eaec 0a3d f827 6cbc 203e 59bc 9cd3 81bc
00000210: c8e4 51bd 3925 8f3d fb2b 55bd 3bbe a7bd
00000220: 2224 58bd 5f05 d23d b98b ba3d 580c 0b3c
00000230: dada 49bd ad7a c73d fdbc 59bd 7b6f ba3d
00000240: 34cb e83c 65aa d9bd f948 4fbd 4682 c8bd
00000250: 5b22 ab3d ca39 9abd 2eed 583d 2205 293d
00000260: de8e 583d c0ef a3bd 5f60 af3d 24e2 f03c
00000270: d0e7 84bd aeca d6bd 808a a53b 0216 6b3d
00000280: 1a28 dfbd 330a 7cbd 9112 9b3d 0021 87ba
00000290: 109f 59bd a9d8 a7bd d68b 22bd 0074 a3bb
000002a0: 5c4e a73c 4026 29bd bc54 d8bd 681a 7d3c
000002b0: b11c 8dbd 269a 4abd 75aa a43d c0bc 0bbd
000002c0: 78b8 84bd faa3 763d f883 393c ced0 173d
000002d0: d4d3 983c fcb2 873c 005c 0a3b 39c1 b9bd
000002e0: b004 89bc 7582 d83d f16a 9e3d d4cc c73c
000002f0: ba95 243d d8d8 a7bc 4d65 8c3d 7278 623d
00000300: 6fad b13d de0f 96bd 9188 883d 4ef7 67bd
00000310: 44fc d93c 8362 51bd 729c 063d 56ed 49bd
00000320: 0066 a839 61eb 5ebd 0ee6 debd 3159 d9bd
00000330: 8f64 42bd 4866 3f3c e45a 3dbd 0af5 58bd
00000340: 20fb 8fbd 7880 87bc a04a 063b 1255 633d
00000350: a6df 643d 38fd 273c 1006 e63b 675c be3d
00000360: bea5 583d 381d 97bc 06e9 21bd 7baa c83d
00000370: c48e 9bbd 350b ae3d 9068 75bc 9c54 c4bd
00000380: b039 b8bc 00ac 0439 2385 d93d 0e8a 17bd
00000390: e6f9 aebd 7c19 eb3c 5bf7 973d 0e49 143d
000003a0: 3e5b 693d c0af 60bc 5be8 abbd 029c 1ebd
000003b0: 6dbe b03d 0046 c53a 9215 163d da43 663d
000003c0: e658 1b3d 1a1f d2bd 76a3 313d d42c d3bd
000003d0: 601d 3abb 546b b5bd 2a7f 253d 42b3 9ebd
000003e0: 0dc5 b5bd 048e 17bd f4c2 d33c d847 87bc
000003f0: c85b 9fbd 5685 95bd 2cf3 f0bc f225 233d

R0__63 f4 [1, 400, 100]
0.03575778 0.19702262 0.06727359 0.12646362 0.27663177 0.17038669 0.13547479 -0.2812045
-0.035551954 0.08920294 -0.017417556 -0.09848236 0.35199946 -0.041483853 -0.08596674 -0.095286794
-0.014446365 -0.22289859 0.1543262 0.060404122 0.147675 -0.19982578 -0.26583007 0.07636288
0.17343974 0.0067501958 0.16265878 0.21850738 -0.18901244 -0.13321178 0.17684402 0.2192765
-0.05704662 -0.25074354 0.059334382 -0.10723647 -0.15672216 0.110692404 0.42272195 0.00576863
-0.086521566 0.2304037 -0.21486399 -0.1450075 0.01741681 -0.020418435 -0.044041865 0.10936388
-0.3294736 0.17038132 0.19356325 0.17806613 -0.08459529 -0.29933977 0.2186982 -0.27033544
-0.115425415 0.14856352 0.28547922 -0.21022828 -0.092769876 -0.120910496 0.006780193 0.014786374
0.22095338 -0.2523578 0.44614053 0.1380217 0.13087903 -0.09795026 0.044649545 -0.17153715
-0.08300276 -0.0043876627 -0.13369402 0.22122706 0.062380705 -0.10223809 -0.005926469 -0.14442743
-0.19663426 0.017135737 -0.08380499 0.11925032 0.041097857 -0.12930213 0.1708615 -0.11575853
0.02737159 0.60393757 -0.16296817 0.19367576 0.28481472 0.19788165 -0.17278312 0.19289543
-0.14112136 -0.4288606 -0.08398632 -0.2562613 -0.014556685 -0.06626968 -0.29672775 0.060722515
0.0013671882 0.035546165 0.4191186 0.06309808 0.1597576 0.008607327 0.081499085 -0.087728225
0.059489235 -0.035381403 -0.12240418 -0.07911821 0.28173417 -0.328551 -0.01762486 -0.4630542
0.24911594 0.0381559 -0.1306271 -0.09356155 0.20559591 -0.21392427 -0.18469784 0.050530627
0.096547686 0.09281583 0.01454464 -0.046639636 0.3414011 0.08681447 -0.33587417 0.34995842
0.13745782 0.10519407 0.07776325 -0.18253446 0.21220556 0.32604915 -0.2004722 0.27080142
0.17716405 0.1425744 0.09492664 -0.1812539 -0.30927825 -0.10526775 0.09250127 0.35638466
-0.10066842 0.25940636 -0.16376784 0.37884787 -0.14083149 -0.2962405 0.15140969 -0.13896465
-0.10606085 -0.3819472 -0.2582567 -0.36199063 0.06736878 -0.23954785 0.02812123 0.14739197
0.05441903 -0.18956421 0.14796437 -0.3205754 -0.34366587 0.10957873 0.28219107 0.11230944
-0.2793229 0.17979984 0.093913026 -0.013735522 -0.06364598 0.22595441 -0.01847505 0.16440707
-0.0056012752 0.19922505 0.29468784 0.09182253 -0.1989575 -0.03822289 0.40671378 -0.04580125
0.1340908 -0.19872807 -0.1553799 -0.30577365 -0.0356224 -0.05107747 0.15291943 0.009489273
0.1567344 0.115608454 0.28610197 0.028863633 0.38297936 0.15060376 -0.016369883 -0.31885803
-0.17005956 0.15628994 -0.24042359 -0.011538047 0.016488373 -0.033441447 0.057243157 0.12734954
-0.029993625 -0.044306133 0.08406578 0.17083552 -0.24948831 -0.29319263 -0.017954333 0.19282264
0.10531389 -0.018724043 -0.12484691 0.24739313 -0.12374007 -0.11350132 0.24436927 -0.040566362
-0.21162628 -0.30567297 0.15367553 -0.2586145 -0.16228046 0.1563043 0.09258725 -0.013466544
-0.18869324 0.018930515 -0.120286554 -0.2574294 -0.08769625 -0.1822587 -0.18611974 0.16404052
-0.18916851 0.36975464 0.14075917 0.14219779 -0.03393516 -0.3592165 -0.060225565 -0.16451381
00000000: c076 123d 4cc0 493e bcc6 893d ae7f 013e
00000010: aea2 8d3e d979 2e3e e7b9 0a3e 09fa 8fbe
00000020: ed9e 11bd 08b0 b63d 43af 8ebc 1fb1 c9bd
00000030: 4639 b43e f9ea 29bd 550f b0bd b925 c3bd
00000040: 72b0 6cbc 873f 64be b007 1e3e 506a 773d
00000050: 1d38 173e 219f 4cbe e11a 88be 2464 9c3d
00000060: 309a 313e bf30 dd3b 0690 263e 66c0 5f3e
00000070: 7a8c 41be ab68 08be 9916 353e 058a 603e
00000080: b7a9 69bd 7561 80be 9c08 733d cb9e dbbd
00000090: c67b 20be b3b2 e23d 036f d83e c706 bd3b
000000a0: 3832 b1bd f3ee 6b3e 4e05 5cbe d97c 14be
000000b0: b3ad 8e3c 9044 a7bc 3e65 34bd 2bfa df3d
000000c0: c4b0 a8be 7178 2e3e 7235 463e f856 363e
000000d0: 4c40 adbd 1043 99be 6cf2 5f3e 6869 8abe
000000e0: 2964 ecbd 0921 183e 552a 923e 1546 57be
000000f0: 22fe bdbd ec9f f7bd 622c de3b 8c42 723c
00000100: 9a41 623e 0b35 81be 886c e43e 8f55 0d3e
00000110: 2705 063e 259a c8bd 71e2 363d 6fa7 2fbe
00000120: 5afd a9bd 62c6 8fbb 16e7 08be 5989 623e
00000130: e982 7f3d 3462 d1bd d332 c2bb c9e4 13be
00000140: 7e5a 49be 3f60 8c3c f3a1 abbd 8339 f43d
00000150: 3a56 283d c767 04be 51f6 2e3e cf12 edbd
00000160: 623a e03c a79b 1a3f 21e1 26be f052 463e
00000170: 3cd3 913e 7da1 4a3e 0fee 30be 6186 453e
00000180: 1e82 10be 9e93 dbbe 0501 acbd ae34 83be
00000190: 2a7f 6ebc 66b8 87bd b3ec 97be 2cb8 783d
000001a0: 3933 b33a db98 113d b796 d63e 9139 813d
000001b0: 7f97 233e bf05 0d3c fee8 a63d dbaa b3bd
000001c0: fcaa 733d 17ec 10bd 0baf fabd ba08 a2bd
000001d0: 763f 903e d637 a8be 0362 90bc 7115 edbe
000001e0: 4018 7f3e 5c49 1c3d 1cc3 05be 339d bfbd
000001f0: bc87 523e f70e 5bbe 6e21 3dbe 34f9 4e3d
00000200: cbba c53d 3a16 be3d a44c 6e3c 3409 3fbd
00000210: 20cc ae3e c9cb b13d b3f7 abbe c02d b33e
00000220: bec1 0c3e fd6f d73d 5742 9f3d 50ea 3abe
00000230: 6a4c 593e eaef a63e 9648 4dbe 7ca6 8a3e
00000240: 7e6a 353e 06ff 113e e668 c23d 9f9a 39be
00000250: b859 9ebe 9e96 d7bd 4e71 bd3d 0d78 b63e
00000260: 3f2b cebd e9d0 843e c2b2 27be 59f8 c13e
00000270: 2136 10be d6ac 97be 240b 1b3e c04c 0ebe
00000280: 6e36 d9bd 958e c3be 393a 84be d656 b9be
00000290: a5f8 893d 084c 75be 7e5e e63c eced 163e
000002a0: 7de6 5e3d 1f1d 42be f983 173e 7522 a4be
000002b0: f9f4 afbe d06a e03d 597b 903e 7e02 e63d
000002c0: 6903 8fbe 731d 383e 7955 c03d f40a 61bc
000002d0: d358 82bd 9860 673e fd58 97bc 545a 283e
000002e0: e78a b7bb a701 4c3e 53e1 963e 730d bc3d
000002f0: 84bb 4bbe 9b8f 1cbd ca3c d03e 179a 3bbd
00000300: 194f 093e 5f7f 4bbe e91b 1fbe 5d8e 9cbe
00000310: cbe8 11bd 9c36 51bd e996 1c3e e578 1b3c
00000320: fc7e 203e 20c4 ec3d f57b 923e 6d73 ec3c
00000330: df15 c43e df37 1a3e 221a 86bc 5c41 a3be
00000340: 1824 2ebe 780a 203e 9a31 76be 140a 3dbc
00000350: a012 873c e6f9 08bd cd77 6a3d eb67 023e
00000360: 31b5 f5bc 597a 35bd ae2a ac3d 82ef 2e3e
00000370: dd79 7fbe 581d 96be f714 93bc 4c73 453e
00000380: cfae d73d 2a63 99bc bdaf ffbd a054 7d3e
00000390: 6f6b fdbd 6173 e8bd f03b 7a3e ea28 26bd
000003a0: 8fb4 58be 2b81 9cbe 1e5d 1d3e 1f69 84be
000003b0: d92c 26be 3c0e 203e 629e bd3d c8a2 5cbc
000003c0: cd38 41be 2b14 9b3c cc58 f6bd c9cd 83be
000003d0: 179a b3bd 06a2 3abe 2c96 3ebe 3dfa 273e
000003e0: 64b5 41be 7b50 bd3e 2c23 103e 4c9c 113e
000003f0: 98ff 0abd 3aeb b7be 15af 76bd 4f76 28be

R0__42 f4 [1, 400, 100]
0.06052196 -0.018947989 -0.012424514 -0.0616661 -0.047483668 -0.038114406 0.06478826 -0.004898668
-0.0077748247 -0.03880023 -0.013035536 0.019744394 -0.06908136 0.029522946 -0.05153343 -0.015642298
-0.0082602035 -0.0009955532 -0.025665663 -0.01487611 0.029389853 -0.061089054 -0.0007081586 -0.0494035
0.0045375885 -0.081718884 0.052103154 0.015286374 -0.019362995 0.016271548 -0.087283336 0.05108594
-0.018389067 0.008810196 -0.07781089 -0.031752046 -0.023462534 0.020717764 -0.066346906 -0.006931739
-0.09237088 -0.03633641 0.038360827 -0.00046349576 0.038514983 -0.04742253 0.120877735 0.009058295
0.005654594 0.04373966 -0.10067374 0.0037071868 0.057617113 0.0012448105 0.10173929 -0.014769223
-0.037024032 -0.00505599 0.024148092 0.025344579 0.051111113 -0.010049101 -0.06354869 -0.09396353
-0.099250935 0.10721928 -0.026524441 -0.04366466 0.059281446 -0.038194045 -0.02683039 -0.019447567
0.0024514173 -0.001037726 -0.005632045 0.0022474537 0.051923547 0.014483408 0.025950175 -0.035070542
0.02633476 -0.002885431 -0.1208702 0.055974014 0.016006969 -0.097299546 -0.0044591203 -0.09866873
-0.014280691 -0.00047093636 0.029040482 -0.019201666 -0.01055299 0.029846039 0.0083792815 -0.022958342
-0.117159955 0.063681304 0.0651433 -0.006291477 -0.041140504 0.048031807 -0.1542938 -0.028401274
0.043308668 0.030543389 -0.028953962 -0.040009085 -0.049959157 -0.02688475 0.01165328 -0.08663921
0.0642916 -0.05787583 0.04616654 -0.004840968 -0.018323446 -0.041272774 -0.008068087 -0.058640003
0.011059966 -0.035351973 -0.045967285 -0.03388531 -0.052299704 0.013849361 0.03855912 -0.030685233
0.020142643 -0.017923351 0.07527273 0.020194754 -0.0727773 -0.027885221 0.04921479 0.036456075
-0.028826326 0.09372173 0.054742504 -0.036194526 0.03895855 -0.11155077 0.005781027 0.019040076
-0.036084544 -0.006502419 -0.091214545 0.040859725 0.010162314 0.01570116 -0.023080053 -0.13754563
0.015176342 -0.10418307 0.020576179 0.024817256 -0.04635708 0.0045327037 0.016771996 0.090909734
0.08026479 0.14132342 -0.008325644 0.054959804 -0.067350775 -0.09184791 -0.011337383 -0.003869886
-0.015342011 0.0505976 -0.0058029955 -0.045472987 -0.017866693 0.017595446 0.057481885 0.021586224
-0.08292301 -0.03827402 0.07276955 -0.020225706 -0.02173637 0.05745788 0.0062418524 0.037251696
-0.059137307 0.041041166 0.09665832 -0.044864066 -0.019900553 -0.00070156326 -0.056704726 -0.04083699
0.048901685 -0.023258843 -0.061090264 0.022169301 -0.016480945 -0.03812127 0.063604295 0.0037538866
0.045927282 0.0149000045 0.0157516 0.02126624 0.0043448987 -0.009156895 0.054325864 0.01735112
0.11835577 -0.006334775 -0.017371364 0.12290969 -0.018279117 0.0067440905 0.009645106 0.019260524
0.0111923935 -0.03827182 -0.0062956293 0.097853966 -0.0085979 0.054023467 0.029058587 -0.058903854
-0.052025344 0.030830558 0.04503853 0.067101054 0.04095275 -0.06235705 -0.06098622 -0.043342832
0.029186798 0.016576616 0.0073667183 -0.00902885 0.05944451 -0.05219236 0.08717296 0.027730659
-0.014877234 -0.07471399 -0.03755154 0.029852029 -0.022209646 0.11145091 -0.076858476 -0.012301137
0.08854696 -0.07585546 0.13038859 0.087993704 -0.0104319425 0.0024208343 0.023557374 -0.045539193
00000000: e0e5 773d d038 9bbc 3090 4bbc 9895 7cbd
00000010: 3c7e 42bd da1d 1cbd b5af 843d 0185 a0bb
00000020: f5c3 febb fdec 1ebd 0093 55bc ffbe a13c
00000030: 877a 8dbd 1bda f13c b814 53bd 4724 80bc
00000040: ce55 07bc 397d 82ba cc40 d2bc edba 73bc
00000050: fdc2 f03c 8438 7abd b8a3 39ba 535b 4abd
00000060: 0db0 943b 3b5c a7bd 1e6a 553d b373 7a3c
00000070: 259f 9ebc e94b 853c 9bc1 b2bd 7e3f 513d
00000080: aba4 96bc a458 103c 515b 9fbd 6f0e 02bd
00000090: 8034 c0bc 4db8 a93c e3e0 87bd a423 e3bb
000000a0: f22c bdbd 7dd5 14bd 3e20 1d3d 5901 f3b9
000000b0: e3c1 1d3d 203e 42bd bf8e f73d 3e69 143c
000000c0: 2c4a b93b 5c28 333d 092e cebd 46f4 723b
000000d0: ecff 6b3d e928 a33a b05c d03d 9cfa 71bc
000000e0: 83a6 17bd b8ac a5bb 38d2 c53c 6f9f cf3c
000000f0: e359 513d fca4 24bc d125 82bd f46f c0bd
00000100: 1344 cbbd c895 db3d c949 d9bc b7d9 32bd
00000110: 1ad1 723d 5c71 1cbd 68cb dbbc 8150 9fbc
00000120: f5a7 203b 4e04 88ba 058d b8bb 044a 133b
00000130: c9ad 543d d14b 6d3c 7695 d43c 21a6 0fbd
00000140: ffbb d73c 8019 3dbb cc8a f7bd 0245 653d
00000150: 0c21 833c fc44 c7bd d01d 92bb d512 cabd
00000160: 8ff9 69bc 02e8 f6b9 4ee6 ed3c d04c 9dbc
00000170: 73e6 2cbc ae7f f43c 4149 093c 2213 bcbc
00000180: 8ff1 efbd 586b 823d da69 853d bc28 cebb
00000190: f282 28bd 00bd 443d 32ff 1dbe caa9 e8bc
000001a0: 6e64 313d 2136 fa3c dc30 edbc 91e0 23bd
000001b0: f9a1 4cbd 683d dcbc 66ed 3e3c e66f b1bd
000001c0: 50ab 833d 350f 6dbd 2019 3d3d fca0 9ebb
000001d0: 0d1b 96bc a40d 29bd 0230 04bc 8030 70bd
000001e0: dc34 353c 3bcd 10bd 3148 3cbd 53cb 0abd
000001f0: 3738 56bd 6ee8 623c 2bf0 1d3d 995f fbbc
00000200: 2f02 a53c fed3 92bc 9728 9a3d 786f a53c
00000210: 440c 95bd 8c6f e4bc 7395 493d f752 153d
00000220: 3025 ecbc 2ef1 bf3d ad39 603d b640 14bd
00000230: 0093 1f3d bb74 e4bd c56e bd3b eff9 9b3c
00000240: 63cd 13bd 3e12 d5bb b1ce babd 875c 273d
00000250: d67f 263c b89f 803c 6112 bdbc c3d8 0cbe
00000260: 31a6 783c ef5d d5bd 608f a83c 8f4d cb3c
00000270: ece0 3dbd 1387 943b 6d65 893c e22e ba3d
00000280: de61 a43d 16b7 103e 4868 08bc 881d 613d
00000290: 34ef 89bd c21a bcbd 6ec0 39bc ea9d 7dbb
000002a0: 0f5d 7bbc 6e3f 4f3d 0e27 bebb e241 3abd
000002b0: 2c5d 92bc 5324 903c 2072 6b3d 98d5 b03c
000002c0: 8ad3 a9bd 38c5 1cbd 3408 953d 61b0 a5bc
000002d0: 7910 b2bc f458 6b3d 7488 cc3b 3c95 183d
000002e0: f639 72bd c81a 283d ccf4 c53d 62c3 37bd
000002f0: 7c06 a3bc 1de9 37ba 3743 68bd b044 27bd
00000300: 224d 483d 5489 bebc c939 7abd 659c b53c
00000310: 0c03 87bc 0c25 1cbd f842 823d c403 763b
00000320: 3f1e 3c3d 261f 743c 8009 813c 8a36 ae3c
00000330: a75f 8e3b cd06 16bc cc84 5e3d f023 8e3c
00000340: 8364 f23d f293 cfbb 644e 8ebc 13b8 fb3d
00000350: 16be 95bc 88fd dc3b 8206 1e3c 3fc8 9d3c
00000360: 4d60 373c e9c2 1cbd 914b cebb a967 c83d
00000370: 35de 0cbc b647 5d3d 460c ee3c 2b45 71bd
00000380: 8718 55bd 5e90 fc3c 527a 383d 476c 893d
00000390: 12be 273d 1b6a 7fbd b0cc 79bd 4188 31bd
000003a0: 2719 ef3c afcb 873c 8364 f13b beed 13bc
000003b0: 167c 733d a8c7 55bd bd87 b23d 682b e33c
000003c0: a4bf 73bc a603 99bd a5cf 19bd 3e8c f43c
000003d0: 01f1 b5bc 6040 e43d fa67 9dbd b58a 49bc
000003e0: 1c58 b53d 1b5a 9bbd 9684 053e 0b36 b43d
000003f0: bdea 2abc dca6 1e3b 65fb c03c 4e87 3abd

B0__64 f4 [1, 800]
-0.24006855 -0.08852216 -0.15134801 -0.08812968 -0.14846972 -0.13994731 -0.14704633 -0.31185955
-0.25135574 0.04588836 -0.1286462 -0.17297821 0.047302563 -0.09179283 -0.07110292 -0.22812626
0.022415921 -0.20372073 0.004410668 -0.022564985 0.006063053 -0.12643456 -0.19593202 -0.29686746
-0.0871791 -0.21648389 -0.10113129 -0.08111863 -0.05141623 -0.22132793 0.11956617 -0.168656
-0.13329645 -0.118105255 -0.05674793 -0.1645318 -0.07981212 -0.2152942 0.028802533 -0.05516157
-0.1025455 -0.016333079 -0.21615906 0.02204222 0.07111755 -0.1213747 -0.17464674 -0.04717351
-0.14334764 -0.15392698 -0.12408991 -0.06513797 0.0028641422 -0.15042712 -0.32487413 -0.2173458
0.025209377 -0.23964934 -0.11865401 -0.07876472 -0.17064156 -0.0030898675 -0.28695002 -0.17816885
-0.15319344 0.048747133 -0.026219564 -0.30836156 0.12423151 -0.21497916 -0.20518938 0.008306905
0.13924918 -0.15115172 -0.018260997 -0.18832982 -0.106434904 -0.1575418 0.005390198 0.07412432
-0.009567423 0.08047904 -0.05719286 -0.25235677 -0.03120368 -0.13039257 -0.24767543 -0.21763249
-0.22417066 0.06431602 -0.041639365 0.035655998 -0.19457595 -0.16044194 -1.8672203e-05 -0.13588808
-0.012764522 0.01062495 -0.14320889 -0.07116633 -0.20653708 -0.16020289 -0.19124614 -0.050251473
-0.09264695 -0.09082407 -0.104229875 -0.25237596 -0.20377906 -0.11697162 -0.07119877 -0.04022128
0.10156905 -0.08166932 -0.18819116 -0.2390823 -0.015512641 -0.11915418 0.13161242 -0.059456542
-0.1284559 0.10870668 -0.21124038 -0.3313533 -0.12577958 -0.2965127 -0.08580373 -0.27444667
-0.060299493 -0.29197496 0.052048236 -0.16057272 -0.185049 -0.15964802 0.094975755 -0.0045300205
-0.12583838 -0.06792061 -0.3095919 -0.08462928 -0.047995195 -0.108622625 -0.20658037 -0.046589106
0.064423375 0.029864874 -0.007806428 0.035825573 -0.31504276 -0.10184706 -0.25241134 0.012328859
0.16641605 -0.066544734 -0.25603223 -0.08696089 -0.074113145 -0.20816016 -0.17685606 0.026145339
-0.1623832 -0.16031948 -0.28071842 -0.18854417 -0.188262 -0.23205996 -0.036251817 -0.27252832
0.16050099 -0.27264413 -0.26325527 -0.13929735 -0.0018482674 -0.17424132 -0.06920577 -0.22101094
-0.11859918 -0.16736701 0.0060832673 -0.05688163 -0.18309957 -0.05764657 -0.038422335 -0.23623863
-0.033923566 -0.1631881 -0.2501035 -0.22462733 -0.21063043 -0.13664977 -0.03636488 -0.15123878
-0.025790446 0.0046722842 0.07007453 -0.1232657 -0.12763071 0.13112237 -0.19016337 -0.06336594
0.74270445 0.96530205 0.8919094 0.7556043 0.83189917 0.86037606 1.0641224 0.8780888
0.94436514 1.1616136 0.9319476 0.82257724 0.9526179 0.6596778 0.8071479 0.74177164
0.7983373 0.993822 0.823044 0.98719877 0.9041769 0.76240665 0.7450121 0.7150407
0.9147608 0.7815189 0.695613 0.857531 1.0922022 1.0609165 1.0028623 0.8260479
0.9051541 0.92941564 0.7453542 0.7579324 0.6506097 0.7567889 0.8342504 0.7172756
0.86517984 0.938736 0.8392544 1.00941 0.8831562 0.8296552 0.9816578 0.80750495
0.91957957 0.8947246 0.89749235 0.71512324 0.7620959 0.750213 0.6331189 0.8591012
00000000: 88d4 75be 1b4b b5bd f9fa 1abe 557d b4bd
00000010: 7208 18be 594e 0fbe 5093 16be 0eac 9fbe
00000020: b3b1 80be 6ff5 3b3d d4bb 03be 3321 31be
00000030: 55c0 413d e1fd bbbd 689e 91bd ee99 69be
00000040: 98a1 b73c 2b9c 50be 5d87 903b 34da b8bc
00000050: 93ac c63b 1078 01be 67a2 48be 03ff 97be
00000060: f58a b2bd f4ad 5dbe ec1d cfbd 8621 a6bd
00000070: d399 52bd caa3 62be 1cdf f43d 29b4 2cbe
00000080: dd7e 08be 2be1 f1bd 8470 68bd 067b 28be
00000090: 8974 a3bd 1576 5cbe 4af3 eb3c 19f1 61bd
000000a0: 6003 d2bd f3cc 85bc cd58 5dbe e391 b43c
000000b0: 14a6 913d 4c93 f8bd 98d6 32be 0339 41bd
000000c0: b9c9 12be 099f 1dbe da22 febd 0e67 85bd
000000d0: 55b4 3b3b 9109 1abe e755 a6be e68f 5ebe
000000e0: e583 ce3c a366 75be e000 f3bd 664f a1bd
000000f0: a9bc 2ebe 607f 4abb 1deb 92be e571 36be
00000100: bede 1cbe 13ab 473d 69ca d6bc 91e1 9dbe
00000110: 176d fe3d 7f23 5cbe 2a1d 52be af19 083c
00000120: 5697 0e3e 84c7 1abe 1698 95bc 88d9 40be
00000130: 8bfa d9bd a352 21be 42a0 b03b 7ece 973d
00000140: aec0 1cbc 32d2 a43d 0f43 6abd e834 81be
00000150: dc9e ffbc a185 05be a19e 7dbe 0ddb 5ebe
00000160: fe8c 65be 1eb8 833d 0a8e 2abd 060c 123d
00000170: eb3e 47be e44a 24be 40a2 9cb7 3f26 0bbe
00000180: 4922 51bc 4514 2e3c 5aa5 12be a7bf 91bd
00000190: 757e 53be 3a0c 24be 07d6 43be 7dd4 4dbd
000001a0: afbd bdbd f801 babd 7976 d5bd 6c37 81be
000001b0: 75ab 50be d18e efbd a9d0 91bd 12bf 24bd
000001c0: 6f03 d03d 3f42 a7bd 2fb5 40be fed1 74be
000001d0: bb28 7ebc 1b07 f4bd 68c5 063e b488 73bd
000001e0: f289 03be 9ca1 de3d 664f 58be 24a7 a9be
000001f0: 5dcc 00be 83d0 97be deb9 afbd 4684 8cbe
00000200: 9afc 76bd be7d 95be 8830 553d 2d6d 24be
00000210: 7c7d 3dbe c57a 23be a682 c23d 9170 94bb
00000220: c7db 00be f619 8bbd d482 9ebe 1e52 adbd
00000230: 9c96 44bd 8a75 debd ce89 53be 38d4 3ebd
00000240: 67f0 833d 2ea7 f43c 10cd ffbb d6bd 123d
00000250: 494d a1be 3195 d0bd 0f3c 81be fcfe 493c
00000260: f868 2a3e 9b48 88bd a816 83be 8d18 b2bd
00000270: a2c8 97bd f027 55be c119 35be c02e d63c
00000280: c847 26be ca2a 24be 53ba 8fbe b911 41be
00000290: c1c7 40be 20a1 6dbe c97c 14bd d588 8bbe
000002a0: 5f5a 243e 0398 8bbe 65c9 86be f7a3 0ebe
000002b0: 9041 f2ba 516c 32be c1bb 8dbd b150 62be
000002c0: 20e4 f2bd 4262 2bbe 2556 c73b b6fc 68bd
000002d0: 747e 3bbe cf1e 6cbd bd60 1dbd 8ae8 71be
000002e0: 70f3 0abd c81a 27be 910d 80be b504 66be
000002f0: 81af 57be ebed 0bbe 57f3 14bd 57de 1abe
00000300: 7c46 d3bc f619 993b 3c83 8f3d ba72 fcbd
00000310: a0b1 02be f144 063e 30ba 42be 00c6 81bd
00000320: e121 3e3f 091e 773f 2d54 643f 496f 413f
00000330: 58f7 543f 9b41 5c3f 2a35 883f 6dca 603f
00000340: eac1 713f c1af 943f 1e94 6e3f 6c94 523f
00000350: c4de 733f a5e0 283f 3fa1 4e3f bfe4 3d3f
00000360: d55f 4c3f 1e6b 7e3f 03b3 523f 0fb9 7c3f
00000370: 2378 673f 152d 433f 1db9 3e3f e80c 373f
00000380: c42d 6a3f 9f11 483f b213 323f 2787 5b3f
00000390: 48cd 8b3f 1dcc 873f cb5d 803f e077 533f
000003a0: 2eb8 673f 2fee 6d3f 88cf 3e3f dc07 423f
000003b0: 5b8e 263f ebbc 413f 6f91 553f 609f 373f
000003c0: 6d7c 5d3f 0151 703f 60d9 563f 5934 813f
000003d0: 8616 623f 4864 543f ed4d 7b3f a5b8 4e3f
000003e0: 9169 6b3f ac0c 653f 0fc2 653f 5112 373f
000003f0: b818 433f f60d 403f 1514 223f 0eee 5b3f

B0__43 f4 [1, 800]
0.0 0.0 0.0 0.0 0.0 0.0 0.0 0.0
0.0 0.0 0.0 0.0 0.0 0.0 0.0 0.0
0.0 0.0 0.0 0.0 0.0 0.0 0.0 0.0
0.0 0.0 0.0 0.0 0.0 0.0 0.0 0.0
0.0 0.0 0.0 0.0 0.0 0.0 0.0 0.0
0.0 0.0 0.0 0.0 0.0 0.0 0.0 0.0
0.0 0.0 0.0 0.0 0.0 0.0 0.0 0.0
0.0 0.0 0.0 0.0 0.0 0.0 0.0 0.0
0.0 0.0 0.0 0.0 0.0 0.0 0.0 0.0
0.0 0.0 0.0 0.0 0.0 0.0 0.0 0.0
0.0 0.0 0.0 0.0 0.0 0.0 0.0 0.0
0.0 0.0 0.0 0.0 0.0 0.0 0.0 0.0
0.0 0.0 0.0 0.0 0.0 0.0 0.0 0.0
0.0 0.0 0.0 0.0 0.0 0.0 0.0 0.0
0.0 0.0 0.0 0.0 0.0 0.0 0.0 0.0
0.0 0.0 0.0 0.0 0.0 0.0 0.0 0.0
0.0 0.0 0.0 0.0 0.0 0.0 0.0 0.0
0.0 0.0 0.0 0.0 0.0 0.0 0.0 0.0
0.0 0.0 0.0 0.0 0.0 0.0 0.0 0.0
0.0 0.0 0.0 0.0 0.0 0.0 0.0 0.0
0.0 0.0 0.0 0.0 0.0 0.0 0.0 0.0
0.0 0.0 0.0 0.0 0.0 0.0 0.0 0.0
0.0 0.0 0.0 0.0 0.0 0.0 0.0 0.0
0.0 0.0 0.0 0.0 0.0 0.0 0.0 0.0
0.0 0.0 0.0 0.0 0.0 0.0 0.0 0.0
1.0 1.0 1.0 1.0 1.0 1.0 1.0 1.0
1.0 1.0 1.0 1.0 1.0 1.0 1.0 1.0
1.0 1.0 1.0 1.0 1.0 1.0 1.0 1.0
1.0 1.0 1.0 1.0 1.0 1.0 1.0 1.0
1.0 1.0 1.0 1.0 1.0 1.0 1.0 1.0
1.0 1.0 1.0 1.0 1.0 1.0 1.0 1.0
1.0 1.0 1.0 1.0 1.0 1.0 1.0 1.0
00000000: 0000 0000 0000 0000 0000 0000 0000 0000
00000010: 0000 0000 0000 0000 0000 0000 0000 0000
00000020: 0000 0000 0000 0000 0000 0000 0000 0000
00000030: 0000 0000 0000 0000 0000 0000 0000 0000
00000040: 0000 0000 0000 0000 0000 0000 0000 0000
00000050: 0000 0000 0000 0000 0000 0000 0000 0000
00000060: 0000 0000 0000 0000 0000 0000 0000 0000
00000070: 0000 0000 0000 0000 0000 0000 0000 0000
00000080: 0000 0000 0000 0000 0000 0000 0000 0000
00000090: 0000 0000 0000 0000 0000 0000 0000 0000
000000a0: 0000 0000 0000 0000 0000 0000 0000 0000
000000b0: 0000 0000 0000 0000 0000 0000 0000 0000
000000c0: 0000 0000 0000 0000 0000 0000 0000 0000
000000d0: 0000 0000 0000 0000 0000 0000 0000 0000
000000e0: 0000 0000 0000 0000 0000 0000 0000 0000
000000f0: 0000 0000 0000 0000 0000 0000 0000 0000
00000100: 0000 0000 0000 0000 0000 0000 0000 0000
00000110: 0000 0000 0000 0000 0000 0000 0000 0000
00000120: 0000 0000 0000 0000 0000 0000 0000 0000
00000130: 0000 0000 0000 0000 0000 0000 0000 0000
00000140: 0000 0000 0000 0000 0000 0000 0000 0000
00000150: 0000 0000 0000 0000 0000 0000 0000 0000
00000160: 0000 0000 0000 0000 0000 0000 0000 0000
00000170: 0000 0000 0000 0000 0000 0000 0000 0000
00000180: 0000 0000 0000 0000 0000 0000 0000 0000
00000190: 0000 0000 0000 0000 0000 0000 0000 0000
000001a0: 0000 0000 0000 0000 0000 0000 0000 0000
000001b0: 0000 0000 0000 0000 0000 0000 0000 0000
000001c0: 0000 0000 0000 0000 0000 0000 0000 0000
000001d0: 0000 0000 0000 0000 0000 0000 0000 0000
000001e0: 0000 0000 0000 0000 0000 0000 0000 0000
000001f0: 0000 0000 0000 0000 0000 0000 0000 0000
00000200: 0000 0000 0000 0000 0000 0000 0000 0000
00000210: 0000 0000 0000 0000 0000 0000 0000 0000
00000220: 0000 0000 0000 0000 0000 0000 0000 0000
00000230: 0000 0000 0000 0000 0000 0000 0000 0000
00000240: 0000 0000 0000 0000 0000 0000 0000 0000
00000250: 0000 0000 0000 0000 0000 0000 0000 0000
00000260: 0000 0000 0000 0000 0000 0000 0000 0000
00000270: 0000 0000 0000 0000 0000 0000 0000 0000
00000280: 0000 0000 0000 0000 0000 0000 0000 0000
00000290: 0000 0000 0000 0000 0000 0000 0000 0000
000002a0: 0000 0000 0000 0000 0000 0000 0000 0000
000002b0: 0000 0000 0000 0000 0000 0000 0000 0000
000002c0: 0000 0000 0000 0000 0000 0000 0000 0000
000002d0: 0000 0000 0000 0000 0000 0000 0000 0000
000002e0: 0000 0000 0000 0000 0000 0000 0000 0000
000002f0: 0000 0000 0000 0000 0000 0000 0000 0000
00000300: 0000 0000 0000 0000 0000 0000 0000 0000
00000310: 0000 0000 0000 0000 0000 0000 0000 0000
00000320: 0000 803f 0000 803f 0000 803f 0000 803f
00000330: 0000 803f 0000 803f 0000 803f 0000 803f
00000340: 0000 803f 0000 803f 0000 803f 0000 803f
00000350: 0000 803f 0000 803f 0000 803f 0000 803f
00000360: 0000 803f 0000 803f 0000 803f 0000 803f
00000370: 0000 803f 0000 803f 0000 803f 0000 803f
00000380: 0000 803f 0000 803f 0000 803f 0000 803f
00000390: 0000 803f 0000 803f 0000 803f 0000 803f
000003a0: 0000 803f 0000 803f 0000 803f 0000 803f
000003b0: 0000 803f 0000 803f 0000 803f 0000 803f
000003c0: 0000 803f 0000 803f 0000 803f 0000 803f
000003d0: 0000 803f 0000 803f 0000 803f 0000 803f
000003e0: 0000 803f 0000 803f 0000 803f 0000 803f
000003f0: 0000 803f 0000 803f 0000 803f 0000 803f
